autoencoder.pth (torch, 745458 bytes, 11 tensors)

encoder.0.weight f4 [32, 1, 3, 3]
0	0xbdd4c218	-0.10388583
1	0xbe806253	-0.25075015
2	0xbe09d68d	-0.13460751
3	0xbe7461b9	-0.23865403
4	0xbd742458	-0.059604973
5	0x3e9ffb3a	0.31246358
6	0x3e3f8490	0.18702912
7	0x3e6eec59	0.23332347
8	0x3e079d1b	0.13243525
9	0xbd2f2ae4	-0.042765513
10	0xbe5611e2	-0.20905259
11	0x3b937481	0.0044999723
12	0x3c4c9ddc	0.0124888085
13	0x3e72bfdd	0.23706003
14	0x3e282896	0.16421732
15	0x3e6ba834	0.23013383
16	0x3f0b73d2	0.544736
17	0x3dc52706	0.09626584
18	0x3d8de7de	0.06928991
19	0x3eab80c2	0.33496672
20	0xbb95b66c	-0.0045688655
21	0x3df5135c	0.11966583
22	0xbe838338	-0.2568605
23	0x3dcf25f0	0.10114658
24	0xbd3947ee	-0.045234613
25	0x3ebf1556	0.37320966
26	0xbda9491c	-0.08265898
27	0xbdb35fba	-0.08758493
28	0x3edb2cbe	0.42807573
29	0x3e6e4b11	0.23270823
30	0xbdd8faa2	-0.105946794
31	0x3f11b493	0.5691616
32	0x3d315c84	0.04330112
33	0x3ea70774	0.32622874
34	0x3b34ecb4	0.0027606906
35	0x3de3d0bb	0.111237966
36	0x3d08bd39	0.03338358
37	0xbe48d1f6	-0.19611344
38	0x3e26ca34	0.16288072
39	0x3dd84036	0.10559122
40	0x3ead9fb9	0.3391092
41	0x3d78532a	0.060626186
42	0xbe64d06e	-0.22345135
43	0xbd5534fa	-0.052052476
44	0xbe206118	-0.15662038
45	0x3e31c828	0.1736151
46	0x3ec1f248	0.37880158
47	0xbdbf5732	-0.09342803
48	0xbe4fb012	-0.20282009
49	0x3ea5bed9	0.32372168
50	0x3e8eac44	0.27865803
51	0xbd8bd839	-0.068283506
52	0xbdd8c9d3	-0.1058537
53	0x3dd86d0d	0.10567675
54	0x3d40707f	0.046982285
55	0x3ea29457	0.317538
56	0xbd0f59bd	-0.03499769
57	0x3edf648c	0.436314
58	0x3dabceae	0.083890304
59	0x3d94af89	0.07260043
60	0xbdd6d1e9	-0.10489256
61	0x3e1516f8	0.14559543
62	0x3d598650	0.053106606
63	0xbe6398b9	-0.22226228
64	0x3ec22789	0.37920788
65	0x3c41baf2	0.011824356
66	0x3e42d211	0.19025446
67	0xbdebc904	-0.1151295
68	0xbe3fb978	-0.18723094
69	0x3e831af2	0.25606495
70	0x3e9d2020	0.30688572
71	0xbe1e7044	-0.15472513
72	0x3e37d62b	0.17952792
73	0xbe313b48	-0.1730777
74	0x3bfe4468	0.0077596195
75	0x3ecc0f3b	0.3985537
76	0xbe3558b3	-0.17709617
77	0x3ecb73c1	0.3973675
78	0x3e543261	0.20722343
79	0x3e4d6313	0.20057325
80	0x3d956ec1	0.07296515
81	0xbdef6622	-0.11689402
82	0xbe254eeb	-0.16143386
83	0x3c1359ac	0.008993547
84	0x3dc0a253	0.09405961
85	0xbe35424c	-0.17701072
86	0x3d2f81f9	0.04284856
87	0xbda087a4	-0.078383714
88	0x3cb1be36	0.021697145
89	0x3e97a377	0.296169
90	0x3d4c7738	0.049918383
91	0x3eb33b2c	0.35006082
92	0xbcd5d702	-0.0261035
93	0xbcd53b5c	-0.026029281
94	0xbdaee2d9	-0.085393615
95	0xbc9bd54c	-0.019022606
96	0xbdc1422e	-0.09436451
97	0xbe06466b	-0.131128
98	0x3ed85344	0.42251027
99	0x3e44c9b8	0.19217575
100	0xbdce1a12	-0.10063566
101	0xbdfb1a69	-0.12260897
102	0xbda76f94	-0.08175579
103	0xbe2dff22	-0.16991857
104	0x3e084d53	0.13310747
105	0xbc194e19	-0.009356999
106	0xbe03784a	-0.12838855
107	0x3e77217e	0.2413387
108	0x3d048dc5	0.032361764
109	0xbd1b8112	-0.037964888
110	0x3e778847	0.2417308
111	0xbd2804fb	-0.041020375
112	0x3ef4d40f	0.47818038
113	0xbdc4698c	-0.09590444
114	0xbcc78124	-0.024353571
115	0xbe7a6df7	-0.24456011
116	0xbda7fc71	-0.08202446
117	0xbe1fad93	-0.15593557
118	0x3eb800d9	0.35938147
119	0x3eca2ef8	0.3948896
120	0x3ecb623b	0.3972338
121	0xbeaead59	-0.3411663
122	0x3eb932ee	0.3617167
123	0x3e931174	0.28724253
124	0xbe248a86	-0.16068467
125	0xbe2c8d32	-0.16850737
126	0xbd93adb9	-0.07210869
127	0x3e149940	0.14511585
128	0x3ebb313b	0.36560997
129	0x3c52d7ca	0.012868831
130	0xbe0463d7	-0.12928711
131	0xbce58541	-0.028017642
132	0x3ee8ba15	0.4545447
133	0x3e94e63f	0.29081914
134	0x3e9200f5	0.28516355
135	0x3e356552	0.17714432
136	0x3e30ba84	0.1725865
137	0xbd232192	-0.039826937
138	0x3ee48763	0.44634542
139	0xbece2a66	-0.40266722
140	0x3eed54f1	0.46353868
141	0x3e2f025d	0.17090745
142	0xbe88fc18	-0.26754832
143	0x3eacb6a2	0.33733088
144	0xbe349627	-0.17635404
145	0x3e12a829	0.1432196
146	0x3da90b3d	0.08254097
147	0x3e1c3e2b	0.1525809
148	0xbd9db96f	-0.07701384
149	0xbe1dcf4b	-0.15411107
150	0xbcf48a1e	-0.029851016
151	0x3e96f2b4	0.29482043
152	0x3e5e91f9	0.21735372
153	0xbb4769d9	-0.003042808
154	0x3e2e3e6e	0.17016003
155	0xbd6d21f3	-0.057893705
156	0xbe622b68	-0.2208687
157	0x3eed1478	0.4630468
158	0x3ec1969c	0.37810218
159	0x3e2a6c54	0.16642886
160	0x3df2d784	0.118575126
161	0x3e6b3017	0.22967564
162	0xbd356d61	-0.044293765
163	0xbe708084	-0.23486525
164	0x3e2a5ff4	0.16638166
165	0x3ebb2427	0.3655102
166	0x3f3d5d16	0.7397016
167	0xbe01faf3	-0.12693386
168	0x3d7f4d69	0.062329683
169	0xbe255ddc	-0.16149086
170	0x3e3024df	0.17201565
171	0xbd4c5972	-0.04988999
172	0x3bb4149e	0.005495622
173	0xbe09a35e	-0.13441226
174	0x3b95e428	0.0045743175
175	0x3de63d0c	0.112421125
176	0x3de3590f	0.11100971
177	0x3cc5a68a	0.024127264
178	0xbe810960	-0.25202465
179	0x3e84319b	0.25819096
180	0x3da3266c	0.07966313
181	0x3cdca4cc	0.02693405
182	0xbda7ec9b	-0.08199426
183	0x3ed0b1e8	0.40760732
184	0xbd9f4875	-0.07777492
185	0x3c88fdb6	0.016722541
186	0x3ef2d0d8	0.4742496
187	0xbe053c17	-0.13011204
188	0x3d6b4d7e	0.05744695
189	0xbda311f2	-0.07962407
190	0xbe520261	-0.2050872
191	0x3e6d0bcf	0.23149036
192	0x3e68b78b	0.22726266
193	0x3ee12476	0.4397313
194	0xbbee01a9	-0.0072633815
195	0x3ea77d32	0.32712704
196	0x3ed6f96b	0.41987166
197	0x3e766365	0.24061354
198	0x3ebef318	0.3729484
199	0xbb1fc1ac	-0.0024376912
200	0xbe064994	-0.13114005
201	0x3e0a9be2	0.13536027
202	0x3e91518f	0.28382537
203	0xbe5c3ffb	-0.21508782
204	0x3e3b995a	0.18320218
205	0x3f1fa2ce	0.62357795
206	0x3bfaf872	0.0076590115
207	0x3e966f1a	0.2938164
208	0xbe430476	-0.1904467
209	0x3d6fbbc1	0.058528665
210	0xbe4da20f	-0.20081352
211	0x3d16f70b	0.036856692
212	0xbe96ef26	-0.2947933
213	0x3e0fd61d	0.14046521
214	0xbe0c1900	-0.13681412
215	0x3ec628ac	0.38702905
216	0x3e870940	0.26374245
217	0x3e55762f	0.20845865
218	0xbe0245f7	-0.12722002
219	0x3e85a35c	0.26101196
220	0x3c8370f8	0.016045079
221	0x3cd51bac	0.026014172
222	0x3d7836fa	0.060599305
223	0xbb296337	-0.002584649
224	0x3ed63e14	0.41844237
225	0xbd2a1d33	-0.041531753
226	0x3e35ed2b	0.17766254
227	0xbe2a1bc6	-0.16612157
228	0xbd719ffd	-0.058990467
229	0x3e4d4db1	0.20049168
230	0x3e3628df	0.17789029
231	0x3e56c9de	0.20975444
232	0xbca7facb	-0.02050533
233	0xbe2fe6e5	-0.17177923
234	0x3ec5b647	0.3861563
235	0x3e4044ff	0.1877632
236	0x3e09df7b	0.13464157
237	0x3e5fe877	0.21866022
238	0x3ee18bb2	0.44051892
239	0x3d80c76a	0.06288035
240	0xbe311dc9	-0.17296518
241	0x3da55163	0.08072164
242	0x3eac4209	0.3364413
243	0xbd493f12	-0.049132414
244	0x3e1bd42c	0.15217656
245	0xbdda4819	-0.10658283
246	0x3e0a2a73	0.13492756
247	0x3e20bb17	0.15696369
248	0xbe865dfe	-0.26243585
249	0x3e060204	0.13086706
250	0xbe0b15a2	-0.13582471
251	0x3df671d6	0.12033431
252	0x3e420863	0.18948512
253	0x3ca0701a	0.019584704
254	0xbe0e0d74	-0.1387232
255	0x3f181751	0.5941058

encoder.0.bias f4 [32]
0	0x3ed93556	0.42423505
1	0xbc1584c7	-0.009125895
2	0x3e2e6825	0.17031915
3	0xbde755fa	-0.112956956
4	0x3eb1caf6	0.3472516
5	0x3dfc82bc	0.12329623
6	0xbd9d2fb0	-0.07675111
7	0x3e930c4b	0.28720316
8	0x3c897403	0.016778952
9	0x3ebbbdfd	0.36668387
10	0x3e5c1b84	0.21494871
11	0x3eab7aec	0.3349222
12	0x3ea7942f	0.32730243
13	0x3e80d8ba	0.2516535
14	0xbde5ced8	-0.11221093
15	0x3e60e781	0.21963312
16	0x3e2672d2	0.16254738
17	0xbd8fc4f2	-0.07019986
18	0x3e59698b	0.21231668
19	0x3e87fa20	0.26558018
20	0x3dca0da7	0.09865885
21	0xbe316207	-0.1732255
22	0x3d093c23	0.033504616
23	0x3ef270a0	0.4735155
24	0xbdd7c516	-0.10535638
25	0x3e3cb210	0.184273
26	0xbe74fd26	-0.23924693
27	0x3e85e800	0.26153564
28	0x3dda966a	0.106732205
29	0xbe9c1422	-0.3048411
30	0x3e2583a1	0.16163494
31	0x3c92a47a	0.017900694

encoder.2.weight f4 [64, 32, 3, 3]
0	0x3cfcded5	0.030867973
1	0xbd1f9e0c	-0.038969085
2	0xbd6bb6bf	-0.057547327
3	0x3caf119d	0.021370703
4	0x3e296471	0.16542222
5	0x3d2eb33c	0.0426514
6	0xbc479822	-0.012182267
7	0x3daf7cb6	0.085687086
8	0xbcadcbda	-0.021215368
9	0xbc9d0f23	-0.019172257
10	0xbd6fd07c	-0.058548436
11	0xbdec872b	-0.11549219
12	0xbc08397f	-0.008314489
13	0x3de35b4c	0.11101398
14	0x3dfe2c4c	0.12410793
15	0x3b41756c	0.0029519452
16	0xbc9cd4fd	-0.01914453
17	0x3c463674	0.012097944
18	0xbb8c82f9	-0.004288074
19	0xbc8f8adb	-0.017522266
20	0x3d519496	0.051167093
21	0x3d48b5c5	0.049001474
22	0xbe14bb5c	-0.14524597
23	0xbd1b3ed0	-0.0379017
24	0x3c698cbf	0.014254748
25	0xbdc8408a	-0.09777935
26	0x3e1ed6d2	0.15511635
27	0xbccc2c46	-0.024923455
28	0x3d0b0e62	0.033949263
29	0xbd9e5640	-0.07731295
30	0x3cfbb42f	0.030725567
31	0xbd1b9e6c	-0.03799288
32	0x3c8b04a7	0.016969992
33	0x3d924abf	0.07143163
34	0x3da8d7c0	0.08244276
35	0xbdd83a26	-0.10557966
36	0x3d0d8f3d	0.03456043
37	0x3c5d3dd0	0.013503507
38	0xbd43864e	-0.047735505
39	0x3d345bfd	0.04403304
40	0x3dff4283	0.12463858
41	0x3dde4255	0.108524956
42	0xbca6ef38	-0.02037774
43	0x3b78531f	0.003789134
44	0xbde96965	-0.113970555
45	0x3d8ef920	0.069811106
46	0x3c7cdcd9	0.015433514
47	0x3c4e2901	0.012583018
48	0x3daa388e	0.08311568
49	0xbc077c61	-0.0082694
50	0xbe0139eb	-0.1261975
51	0xbd8264f3	-0.06366911
52	0x3da1c70c	0.07899293
53	0xbc9ca498	-0.019121453
54	0x3d2d7610	0.04234892
55	0x3c5c21a9	0.01343576
56	0xbd08b05e	-0.03337132
57	0xbc9fcd3a	-0.01950704
58	0xbe26e1aa	-0.16297022
59	0x3c35968a	0.011083255
60	0x3c25f8d5	0.010130127
61	0xbd3b93ff	-0.045795437
62	0x3d1af75f	0.037833568
63	0x3d2dfcd4	0.042477444
64	0x3d107f4b	0.035277646
65	0x3d1ef9a8	0.03881231
66	0x3d534a77	0.051584687
67	0xbdcfafa1	-0.101409204
68	0x3d4842ac	0.04889171
69	0x3c4671c5	0.012112086
70	0xbde207a6	-0.11036615
71	0x3df974e6	0.121805
72	0x3d4491c4	0.047990575
73	0xbd6bdf9c	-0.057586297
74	0xbd8f3eb5	-0.06994382
75	0xbccd5502	-0.025064949
76	0x3a07f95e	0.0005187
77	0x3d32b8db	0.043633323
78	0xbdc72b2c	-0.09725031
79	0xbd272f2e	-0.04081648
80	0x3d702018	0.058624357
81	0xbd8368ea	-0.06416495
82	0x3e1241ed	0.14282961
83	0x3e0d7d6b	0.13817374
84	0x3d357fc7	0.04431131
85	0x3e2dd5ac	0.1697604
86	0xbc57b766	-0.013166284
87	0x3d184147	0.03717163
88	0x3baf5eb7	0.005351867
89	0x3db66e08	0.089077055
90	0x3b741c40	0.0037248284
91	0x3e1b4849	0.15164293
92	0x3e27a965	0.16373213
93	0x3d0c7d61	0.03429926
94	0xbd2ee2f6	-0.042696916
95	0xbe06ef10	-0.13177133
96	0x3e0fc35e	0.1403937
97	0xbcc802eb	-0.024415454
98	0x3c88ddc4	0.016707309
99	0xbb87da6d	-0.0041459114
100	0x3c8fc66b	0.017550668
101	0x3d84cd6f	0.06484496
102	0xbd67cc00	-0.056591034
103	0x3d42dd2b	0.047574203
104	0x3c661e3b	0.014045293
105	0xbd5f398d	-0.054498244
106	0x3daf872b	0.08570703
107	0x3de8c05a	0.11364813
108	0xbd687602	-0.056753166
109	0x3d956778	0.07295126
110	0x3d13f483	0.036121856
111	0xbd89b167	-0.0672329
112	0x3e007962	0.12546304
113	0x3dbcf752	0.0922686
114	0xbc3494e7	-0.011021829
115	0x3cfe5c66	0.031049918
116	0xbd970755	-0.07374445
117	0xbda575e6	-0.08079128
118	0xbc91a2c4	-0.017777808
119	0x3d9283bb	0.07154032
120	0xbb2af692	-0.0026086909
121	0xbda7db62	-0.08196141
122	0xbd93d44a	-0.07218225
123	0xbcc7b12b	-0.024376472
124	0x3c0eeda2	0.008723648
125	0x3d82d7d5	0.06388823
126	0xbd37f96b	-0.044915598
127	0xbd71a07b	-0.058990937
128	0xbcc470a4	-0.023979492
129	0xbd1aeb64	-0.037822142
130	0x3c6b3376	0.014355531
131	0x3cc6353b	0.024195304
132	0x3d9ce0de	0.076600775
133	0x3d48a162	0.04898203
134	0xbd1bf109	-0.038071666
135	0x3866e847	5.50526e-05
136	0x3d542e6c	0.051802084
137	0x3d7f0579	0.06226108
138	0xbd2d1833	-0.042259406
139	0x3cac3147	0.021019591
140	0xbd441e5c	-0.047880515
141	0xbd0249b8	-0.031808585
142	0x3d340c87	0.04395726
143	0x3deca039	0.115539975
144	0xbcdeb414	-0.027185477
145	0xbc1530e5	-0.009105896
146	0x3d07a2ef	0.03311437
147	0x3dcd1aed	0.10014901
148	0xbd1d0646	-0.03833606
149	0x3cd9bc9c	0.026579194
150	0x3df59ebe	0.11993168
151	0xbdca161f	-0.098675005
152	0x3d53b031	0.0516817
153	0x3c30d38f	0.010792627
154	0xbd66309c	-0.0561987
155	0xbdefebd5	-0.11714903
156	0x3cc64348	0.024202004
157	0x3dd2efd7	0.10299652
158	0xbcd9aaec	-0.02657076
159	0x3bb83d6b	0.005622556
160	0x3d9af413	0.07566085
161	0xbdb2ca22	-0.0872996
162	0xbcb6b98d	-0.022305274
163	0x3cd090f1	0.025459738
164	0xbddaef39	-0.10690159
165	0xbcc04a4b	-0.023472926
166	0x3dee287f	0.11628818
167	0x3e1f301c	0.15545696
168	0x3d191256	0.037371002
169	0xbc9478f6	-0.018124085
170	0xbe0a591e	-0.13510558
171	0x3d86b991	0.06578363
172	0x3d9caaae	0.07649742
173	0x3d9a5e1a	0.0753748
174	0x3c266096	0.010154864
175	0x3da4cf6f	0.08047377
176	0xbbf2572f	-0.007395647
177	0xbd68ffe3	-0.056884658
178	0x3d360da0	0.044446588
179	0x3aba1e16	0.001419964
180	0xbc601141	-0.013675989
181	0x3c0c5041	0.008564056
182	0x3d6d3434	0.057911113
183	0x3d5f565c	0.054525718
184	0xbcee9666	-0.02912445
185	0x3dc820dc	0.097718924
186	0x3db9d433	0.09073677
187	0xbd9b5b6a	-0.07585795
188	0x3ddc42ae	0.10754906
189	0x3bfce349	0.007717524
190	0xbd0fb1ac	-0.03508155
191	0xbe2d1a39	-0.16904534
192	0x3ca91214	0.020638503
193	0x3ddde01c	0.10833761
194	0x3e12cd73	0.14336185
195	0xbd31ce3a	-0.043409564
196	0x3ccab511	0.024744542
197	0xbd56853b	-0.052373152
198	0x3d97f32d	0.07419429
199	0xbd1c7d3e	-0.038205378
200	0xbd96c290	-0.073613286
201	0x3cca76be	0.024714824
202	0xbb77c7fa	-0.0037808404
203	0x3e16c537	0.14723669
204	0xbd343050	-0.043991387
205	0xbd77200e	-0.060333304
206	0x3dea1f2f	0.11431729
207	0xbcb4a172	-0.02204964
208	0x3dd92108	0.10602003
209	0x3d90c3a5	0.07068566
210	0x3d0c7c19	0.034298036
211	0x3dada309	0.08478362
212	0x3ded7ab1	0.11595667
213	0x3da25885	0.0792704
214	0x3d254cfd	0.040356625
215	0xbc98d042	-0.018653993
216	0xbc354689	-0.01106418
217	0xbc5582ea	-0.013031701
218	0xbc9d4ffb	-0.019203177
219	0x3d8dc574	0.06922427
220	0xbdb695f0	-0.08915317
221	0xbd935424	-0.07193783
222	0x3c662725	0.014047419
223	0xbd340058	-0.04394564
224	0x3cf03bff	0.029325483
225	0x3dbaa303	0.09113123
226	0xbd8328bc	-0.06404254
227	0x3d845fe3	0.064636014
228	0xbbf0cb06	-0.007348421
229	0xbb8d4790	-0.0043115094
230	0x3d8c263f	0.06843232
231	0xbd00efbe	-0.031478636
232	0x3bd56136	0.0065118326
233	0x3c86253e	0.01637518
234	0xbbd33ce1	-0.0064464663
235	0xbc82f3ea	-0.015985448
236	0xbdb21e14	-0.08697143
237	0xbcd6af67	-0.026206685
238	0x3b295d85	0.0025843096
239	0x3d667fee	0.056274347
240	0x3d20f03c	0.039291605
241	0xbd141c76	-0.036159955
242	0x3c8b9a0c	0.017041229
243	0x3cd82a79	0.02638744
244	0x3d00ee20	0.031477094
245	0x3dcc146d	0.099648334
246	0x3d851f91	0.065001614
247	0xbcb93022	-0.02260596
248	0x3da5c988	0.0809508
249	0x3d285386	0.04109528
250	0x3b2f923d	0.0026790046
251	0x3bef9e12	0.0073125446
252	0x3d12e053	0.035858463
253	0x3d826b1e	0.06368087
254	0x3dcda433	0.10041084
255	0xbe17bc8b	-0.14818017

encoder.2.bias f4 [64]
0	0x3ba4f4d7	0.00503407
1	0x3d1e6791	0.038672987
2	0xbcc9ba38	-0.024624929
3	0xbceb4384	-0.028718717
4	0x3d759699	0.059958074
5	0x3db1a33c	0.086737126
6	0xbc9b0210	-0.018921882
7	0x3dc77ae2	0.09740235
8	0xbbd43b01	-0.0064767604
9	0xbda643dc	-0.08118412
10	0x3d9173ad	0.071021415
11	0xbd17eb83	-0.037089836
12	0x3ded0c82	0.11574651
13	0x3db1c69d	0.086804606
14	0x3cae4ab0	0.021275848
15	0x3cc5a895	0.024128238
16	0xbd505b1e	-0.050868146
17	0x3d78717e	0.06065511
18	0x3cf738dd	0.030178482
19	0xbcfe26a5	-0.031024287
20	0x3d899c7f	0.067193024
21	0x3d4de4b8	0.05026695
22	0xbd53bce8	-0.051693827
23	0x3d98d29a	0.07462044
24	0x3d4a710b	0.049424212
25	0xbc956c3f	-0.018240092
26	0x3d9c1390	0.07620919
27	0xbcce50f7	-0.025185091
28	0x3d0edc21	0.0348779
29	0x3ce8372f	0.028346626
30	0x3d1f8be9	0.038951788
31	0x3d95ff9b	0.073241435
32	0x3dc952e8	0.09830266
33	0xbace47e2	-0.0015737975
34	0xbb724163	-0.0036965243
35	0xbd179677	-0.03700873
36	0xbc2ae8b4	-0.010431457
37	0x3bb053c5	0.00538108
38	0x3d9d6c31	0.076866515
39	0x3caead31	0.021322818
40	0x3db4dff0	0.08831775
41	0x3d5a779f	0.053336736
42	0xbd5746b7	-0.052557673
43	0x3dac6160	0.0841701
44	0xbd795fe9	-0.060882483
45	0x3bc7b61c	0.006094707
46	0x3d9471c0	0.072482586
47	0xbcf97b4d	-0.030454302
48	0x3d78c281	0.06073237
49	0xbca40a56	-0.02002446
50	0xbaeace7c	-0.001791432
51	0x3d8c149e	0.0683987
52	0x3ceacd59	0.02866237
53	0x3d39591d	0.045251
54	0x3d9e49e3	0.077289365
55	0x3cd3d00d	0.025856042
56	0x3d707e9a	0.058714487
57	0x3de67e73	0.11254587
58	0xbcfc3f99	-0.030792044
59	0xbd4ad08a	-0.049515285
60	0x3cc69084	0.024238832
61	0x3de0e096	0.10980336
62	0x3c79363a	0.0152106825
63	0x3d72aa41	0.059244398

encoder.4.weight f4 [128, 64, 3, 3]
0	0xbcb1dfb2	-0.021713112
1	0xbb2d7ae4	-0.0026470954
2	0xbd1ac51e	-0.03778564
3	0x3d09df5d	0.03366028
4	0xbbd32569	-0.0064436686
5	0x3cfcfd01	0.03088236
6	0x3d10d254	0.035356835
7	0xbd092eb3	-0.0334918
8	0xbbf06e30	-0.007337354
9	0xb99dd723	-0.00030105663
10	0xbc9207b2	-0.017825935
11	0x3d01d1e7	0.03169432
12	0xbd2d127a	-0.04225395
13	0xbd0110fd	-0.031510342
14	0x3bcaadaa	0.006185253
15	0xbc7e065d	-0.015504447
16	0x3c81ad04	0.01582957
17	0x3b10c24e	0.002208847
18	0xbd033a47	-0.032038
19	0xbd2a98c6	-0.041649602
20	0x3d296298	0.041353792
21	0x3c34e47f	0.011040806
22	0x3d0d65e8	0.034521013
23	0x3c81e89e	0.01585799
24	0xbca7159b	-0.020396044
25	0x3d1a1e00	0.037626266
26	0x3d1e6bd7	0.038677063
27	0x3cf63d40	0.030058503
28	0xbb759297	-0.0037471408
29	0x3d0f73a8	0.035022408
30	0x3c0f397b	0.008741732
31	0x3c8776d6	0.016536158
32	0xbd022d6e	-0.031781606
33	0x3cc967a6	0.024585556
34	0x3cfc8121	0.030823292
35	0x3cf44f53	0.029822981
36	0x3d00e468	0.031467825
37	0x3ccf057d	0.025271172
38	0xbb9bf287	-0.004759136
39	0x3c3a4bfe	0.011370657
40	0x3b120261	0.002227925
41	0xbc6079c8	-0.01370091
42	0x3d181bb4	0.037135795
43	0x3cc50af5	0.024053076
44	0xbc9bb7f4	-0.019008614
45	0xbc3c365b	-0.011487569
46	0x3cd861c7	0.026413811
47	0xbb18912a	-0.0023279884
48	0xbc7cd83f	-0.015432416
49	0xbbb90252	-0.0056460286
50	0x3bf9bc40	0.007621318
51	0xbd18b454	-0.03728135
52	0xbd1283ea	-0.035770334
53	0x3ceab3af	0.028650133
54	0x39fc8156	0.00048161548
55	0x3c1ba816	0.009500524
56	0x3cc4e5e3	0.0240354
57	0xbc5b4206	-0.01338244
58	0x3d28dbf8	0.041225404
59	0xbc880fde	-0.016609129
60	0x3cac1523	0.021006173
61	0xbcc39876	-0.02387641
62	0xbcb2aef0	-0.021811932
63	0xbd174ce5	-0.036938567
64	0xbc971d83	-0.01844669
65	0xbc68e1e1	-0.01421401
66	0xbd1dab0f	-0.038493212
67	0x3be16532	0.0068785185
68	0xbd02861f	-0.03186619
69	0xbd22a734	-0.03971024
70	0xbd3b8a9e	-0.045786493
71	0x3cdaa422	0.026689593
72	0xbd07850a	-0.03308586
73	0x3d0f7ec7	0.035033014
74	0x3be8aea6	0.007100898
75	0xbd29b441	-0.04143167
76	0xbd41cb0a	-0.047312774
77	0x3a8343d3	0.001001472
78	0xbce23520	-0.027613223
79	0xbd41cbe7	-0.047313597
80	0xbc51cb0d	-0.012804759
81	0xbcde4506	-0.027132522
82	0xbc797658	-0.015225969
83	0xbc3016d8	-0.010747634
84	0xbd3fed9f	-0.046857473
85	0xbb740d4c	-0.003723937
86	0xbc572b52	-0.013132887
87	0x3ca74258	0.020417377
88	0xbd0006f2	-0.031256624
89	0xbc676a2d	-0.014124435
90	0x3caa4082	0.020782713
91	0xbca320dc	-0.01991313
92	0xbd2fb581	-0.042897705
93	0xbd07f266	-0.033190154
94	0x3cfd1b23	0.030896729
95	0x3d01a5c8	0.031652242
96	0x3c5dc894	0.013536591
97	0x3c754ec2	0.014972391
98	0x3aedef40	0.0018152967
99	0x3c063616	0.008191606
100	0xbca2cee0	-0.019874036
101	0xbd01b5c3	-0.031667482
102	0xbc67eadb	-0.014155115
103	0xbba27cba	-0.004958716
104	0xbce8bb8f	-0.028409747
105	0xbd212f46	-0.039351724
106	0x3c5c5f9a	0.013450528
107	0xbc63de17	-0.013907931
108	0x3d194bb9	0.03742573
109	0x3c21e1df	0.009880512
110	0xbd4e7785	-0.05040695
111	0xbd04d5d0	-0.03243047
112	0xbcf49c0d	-0.029859567
113	0x3bfc603c	0.0077019017
114	0xbae343e3	-0.0017338957
115	0xbc8b24fc	-0.016985409
116	0x3d2e30fc	0.042527184
117	0xbc9f8367	-0.019471837
118	0xbcf117a1	-0.029430212
119	0xb92eda7e	-0.00016675328
120	0x3c599235	0.013279487
121	0xbc1691cf	-0.009190037
122	0xbd0417c1	-0.032249216
123	0x3cb79cb7	0.022413595
124	0xbcb0007b	-0.021484604
125	0xbd0f0372	-0.034915395
126	0x3ce4867e	0.027896162
127	0x3c3547cf	0.011064484
128	0xbc7a4e5b	-0.01527747
129	0x3cd62ee6	0.02614541
130	0x3bdeaa7a	0.0067952247
131	0x3a9349d6	0.0011237215
132	0x3b918b4b	0.004441654
133	0xbd194141	-0.037415747
134	0x3c6575e6	0.01400516
135	0x3c2c8ed5	0.010532101
136	0xbd37f6ad	-0.044912983
137	0x3cc26355	0.023729006
138	0xbc8bce3b	-0.017066112
139	0xbc0e6581	-0.008691193
140	0x3ca1723d	0.019707793
141	0xbcfbb183	-0.030724293
142	0x3c633fd5	0.013870199
143	0xbcae58fc	-0.021282665
144	0xbc7a1654	-0.0152641125
145	0xbd1a9a4e	-0.037744813
146	0xbce98627	-0.028506352
147	0xbcb9c4a3	-0.022676772
148	0xbd28e167	-0.041230585
149	0xbc94e94f	-0.018177656
150	0xbca1ecf2	-0.019766305
151	0x3c2c613c	0.010521229
152	0x3cc682f9	0.024232375
153	0xbd2b8816	-0.04187783
154	0xbb197aca	-0.0023419135
155	0x3d1598e0	0.036522746
156	0x3d0cb350	0.034350693
157	0xbcd72898	-0.026264474
158	0xbd0e5991	-0.034753386
159	0x3d0875b9	0.033315394
160	0x3bab1d87	0.005222026
161	0xbd1edde9	-0.03878585
162	0xbbc6aab0	-0.006062828
163	0xb9e7116c	-0.00044072734
164	0xbc90b6a3	-0.017665213
165	0xbc81464e	-0.015780594
166	0xbd012c3c	-0.031536326
167	0xbc3c7f0c	-0.0115049
168	0xbd451d00	-0.04812336
169	0xba431a26	-0.0007442556
170	0xbccb28dc	-0.024799757
171	0x3b946eb3	0.004529798
172	0xbd205505	-0.03914358
173	0x3cdbd1ba	0.026833404
174	0x3d1f94d2	0.038960285
175	0xbcf402b3	-0.029786443
176	0xbc228b53	-0.009920913
177	0x3cf97f34	0.030456163
178	0x3b472c18	0.0030391272
179	0xbd0465d4	-0.032323673
180	0xbc0ffac1	-0.008787812
181	0xbbfbf1b6	-0.0076887263
182	0x3ccc68b4	0.02495227
183	0x3ce90c9f	0.028448401
184	0xbb871827	-0.004122752
185	0xbb6b2bf5	-0.0035884355
186	0xbd23966e	-0.039938383
187	0x3cb91f7a	0.022598017
188	0xbb0f0fd0	-0.0021829493
189	0x3cdef08b	0.02721431
190	0xbc8534c1	-0.016260507
191	0xbaf82698	-0.00189324
192	0xbd02cc13	-0.0319329
193	0xbc726b73	-0.014796126
194	0x3c993a92	0.018704686
195	0xbcb0d424	-0.021585532
196	0x3d358e52	0.04432518
197	0x3c4d08eb	0.012514333
198	0x3af8d385	0.0018983936
199	0xbd0abc4d	-0.033870984
200	0x3c9b8a7b	0.018986931
201	0x3b05426e	0.0020333785
202	0xbcdbbd16	-0.026823562
203	0x3acba0e9	0.0015535626
204	0xbbf73a63	-0.007544802
205	0xbc6c0bfc	-0.014407154
206	0x3bdf25aa	0.00680991
207	0x3ce861ba	0.028366912
208	0x3a14afb4	0.0005671934
209	0x3bdcd6e1	0.0067394827
210	0x3d01fc87	0.03173497
211	0xbbce6a45	-0.0062992894
212	0xbc9a1d24	-0.018812723
213	0x3cd49a0c	0.025952362
214	0xbc85aa3f	-0.016316531
215	0xbd14c3cd	-0.036319543
216	0xbd05de6d	-0.032682825
217	0x3a79783c	0.00095165125
218	0x3d10b91e	0.03533279
219	0x3c13aef8	0.009013884
220	0xbb92aa48	-0.0044758655
221	0xbcc6ff3c	-0.024291627
222	0x3cc1a84c	0.02363982
223	0x3b359cd3	0.0027711883
224	0xbd0f4e9f	-0.03498709
225	0x3cfdd335	0.0309845
226	0xbbcbad1d	-0.006215705
227	0xbba83081	-0.0051327352
228	0xbb6bb47b	-0.003596573
229	0xbcd806ad	-0.02637037
230	0xbaa3136a	-0.0012441699
231	0x3c1b01ac	0.009460848
232	0xbc25cd96	-0.010119816
233	0xbc869a41	-0.016430976
234	0xbbb83e80	-0.005622685
235	0xbb3c13e2	-0.0028698375
236	0x3d3a451f	0.045476075
237	0xbcf40a21	-0.029789986
238	0xb99544f0	-0.00028470857
239	0xbc78d57e	-0.015187619
240	0x3840c033	4.5955367e-05
241	0xbc9f9de6	-0.019484472
242	0xb9de2eba	-0.00042377954
243	0x3bcc4b60	0.0062345713
244	0xbc98c021	-0.018646302
245	0xbd20591c	-0.03914748
246	0x3d0304c1	0.031986956
247	0xbcb487b4	-0.022037365
248	0x3cd49ed3	0.02595464
249	0xbbb06320	-0.0053829104
250	0xbb59cc47	-0.003323333
251	0xbbd32356	-0.0064434214
252	0x3c5fb11b	0.013653065
253	0xbd3cc469	-0.04608575
254	0xbccd5277	-0.025063736
255	0xbbde13c9	-0.006777261

encoder.4.bias f4 [128]
0	0x3c8dc5c9	0.017306225
1	0x3ca11227	0.019661976
2	0xbb4f1847	-0.0031600164
3	0xbce6179b	-0.028087428
4	0x3d0e749a	0.03477917
5	0x3d8166c9	0.06318433
6	0x3c2cb8c4	0.010542098
7	0xbc09ed81	-0.008418442
8	0x3c8982ba	0.016785968
9	0xbcd79482	-0.026315931
10	0xb9caa9ec	-0.00038655044
11	0x3ae9c159	0.0017834111
12	0x3d00bd0b	0.031430285
13	0x3d942abd	0.07234714
14	0x3d33882f	0.043831047
15	0x3afc93c4	0.0019270112
16	0x3c60193b	0.01367789
17	0x3c570179	0.01312291
18	0x3d4abb5d	0.04949509
19	0x3d0936df	0.033499595
20	0x3cb1348e	0.021631505
21	0x3d2bc3d0	0.04193479
22	0xbc8c54f1	-0.017130347
23	0x3ce5fcc5	0.028074631
24	0x3ce20376	0.02758954
25	0xbd1eb2f6	-0.03874489
26	0xbb995137	-0.004678871
27	0x3d0d54d7	0.034504738
28	0x3d3de5cd	0.046361733
29	0xbcab571e	-0.020915564
30	0x3c80581e	0.015667018
31	0xbce34ed6	-0.027747553
32	0x3b3f7bb4	0.002921802
33	0x3d6aefc0	0.05735755
34	0xbd1db446	-0.038502
35	0xbcc1deb0	-0.023665756
36	0xbc380032	-0.011230515
37	0xbd278070	-0.040893972
38	0xbb77d3af	-0.0037815382
39	0x3d17a5bc	0.03702329
40	0x3caf73b2	0.021417473
41	0x3cdd2f2b	0.02700003
42	0x3d3045dc	0.043035373
43	0x3cf1dedd	0.029525215
44	0xbc2b8187	-0.010467893
45	0xbbdb7e28	-0.0066983886
46	0xbd4bd9b5	-0.04976817
47	0x3d8c6c88	0.06856638
48	0x3d425549	0.047444616
49	0xbba91287	-0.0051596793
50	0x3c66ef00	0.014095068
51	0x3d7b94b7	0.061421122
52	0xbd164f38	-0.036696643
53	0x3c2cd0ba	0.010547811
54	0xbcf2c6e2	-0.02963585
55	0x3cd54ee8	0.026038602
56	0xbc64fb42	-0.01397592
57	0xbcf2a790	-0.029620916
58	0xbcf96952	-0.030445728
59	0x3cc2c3ea	0.02377506
60	0x3b5f1124	0.0034037316
61	0xbc865edc	-0.016402654
62	0xbc76eea6	-0.015071547
63	0x3d0efff0	0.03491205
64	0xbc3fbbb4	-0.011702467
65	0xbd5a9833	-0.053367805
66	0x3b84a01f	0.0040474082
67	0x3c9ece20	0.019385397
68	0xbc16041c	-0.009156253
69	0x3cdacd10	0.02670911
70	0xbd2da239	-0.042391036
71	0xbd404671	-0.04694218
72	0x3d47af23	0.048751008
73	0xbc2ec71d	-0.0106675895
74	0x3d4baa79	0.049723122
75	0x3d88bd5a	0.06676741
76	0xbd591264	-0.052996054
77	0x3d3ca8ce	0.046059422
78	0x3d12f17e	0.035874836
79	0xbb00b1dc	-0.0019637262
80	0x3d6294b4	0.055317596
81	0x3d1c37db	0.038139205
82	0x3d5387ca	0.05164317
83	0xbcab711a	-0.020927954
84	0xbca706dd	-0.020389015
85	0x3c9cf9d5	0.019162098
86	0x3b85ae79	0.0040796367
87	0x3c5a5548	0.013325997
88	0xb9358c63	-0.00017313803
89	0x3b978a74	0.004624659
90	0xbc5991c7	-0.013279385
91	0xbd5de2d4	-0.0541714
92	0x3cbdcd55	0.023169199
93	0x3a07354b	0.00051577826
94	0x3d088cf2	0.03333754
95	0xbd034e59	-0.03205714
96	0xbbaf65e8	-0.0053527243
97	0x3d594c66	0.053051375
98	0x3d8f08a1	0.06984068
99	0x3c1b54d8	0.009480678
100	0xbccc588e	-0.02494457
101	0xbc786329	-0.01516036
102	0xbcb695c2	-0.022288207
103	0xbb42d260	-0.0029727444
104	0xbcb7ef31	-0.022452923
105	0x3d1a4595	0.037664015
106	0xbd3dfd5b	-0.046384197
107	0x3d01c749	0.031684194
108	0xbcd33706	-0.025783073
109	0xbd08ed27	-0.03342929
110	0xbd2b01bf	-0.041749712
111	0xbcf10794	-0.029422559
112	0x3c3f83ad	0.011689109
113	0x3d0690b4	0.032852843
114	0x3d0bbe5a	0.03411708
115	0xbd2cd36d	-0.04219382
116	0x3d78e69b	0.060766798
117	0xbd6e4406	-0.05817034
118	0x3b3bebe3	0.0028674535
119	0x3c3bca10	0.01146175
120	0xbc1c5c57	-0.0095435
121	0xbce72c26	-0.028219294
122	0xbcf44105	-0.02981616
123	0xbc3b37ce	-0.011426879
124	0xbc578420	-0.01315406
125	0x3d215c21	0.0393945
126	0x3c82f8f8	0.015987858
127	0x3cae631d	0.021287495

decoder.0.weight f4 [128, 64, 3, 3]
0	0xbd38b61a	-0.04509554
1	0x3d259b7d	0.04043149
2	0xbc6f4ae5	-0.014605259
3	0x3ca1a743	0.019733077
4	0xbba1c096	-0.004936288
5	0x3ccda13b	0.025101295
6	0x3c828aa1	0.015935244
7	0xbb042e3a	-0.0020169155
8	0xbc6f3a70	-0.014601335
9	0x3d284707	0.041083362
10	0x3c243c62	0.010024162
11	0x3c692a14	0.014231224
12	0xbc45172c	-0.01202945
13	0x3d1c9f9d	0.038238157
14	0x3c098074	0.008392442
15	0x3c540fee	0.012943251
16	0x3d143d57	0.03619131
17	0x3ba54d05	0.005044582
18	0x3d001ac4	0.031275526
19	0xbd02f42e	-0.03197115
20	0xbcef697e	-0.029225107
21	0x3c60df1d	0.013725069
22	0x3d1a5a10	0.037683547
23	0x3ce69d7f	0.028151272
24	0x3c4ea7b6	0.012613228
25	0xbc32b816	-0.010908147
26	0x3c7674bc	0.01504248
27	0x3bffc440	0.0078053772
28	0xbd09007b	-0.033447724
29	0xbcc6957f	-0.024241207
30	0xbbab3246	-0.005224499
31	0xbcad5cd9	-0.021162437
32	0xbc101bd1	-0.008795694
33	0xbcd772cd	-0.026299858
34	0x3d048078	0.03234908
35	0x3c8001d8	0.01562588
36	0xbbd3a76b	-0.0064591668
37	0x3c7e0104	0.015503172
38	0x3aab1400	0.0013052225
39	0xbd0d0492	-0.034428187
40	0x3cb2d26d	0.021828854
41	0x3c38461a	0.011247182
42	0x3d19bf28	0.037535816
43	0x3d142225	0.036165375
44	0xbca890ae	-0.020576801
45	0xbca24ec5	-0.01981295
46	0x3d0b8d06	0.034070037
47	0x3c744301	0.014908553
48	0x3c9e1a33	0.019299602
49	0xbd056573	-0.032567453
50	0x3c09c4a2	0.008408697
51	0xbd0f8111	-0.035035197
52	0xbc93088f	-0.017948417
53	0xbd04c040	-0.032409906
54	0xbc25e41e	-0.010125188
55	0xbba77456	-0.005110304
56	0x3d3d697c	0.046243176
57	0x3c762930	0.015024468
58	0xbcb34c58	-0.02188699
59	0x3a4c1156	0.00077845657
60	0xbcac1b5c	-0.02100914
61	0xbcef6273	-0.029221749
62	0x3ba1959b	0.0049311644
63	0xbcf3df33	-0.029769516
64	0xbd0777aa	-0.033073105
65	0xba801263	-0.0009771105
66	0xbc1990c8	-0.009372897
67	0xbcd543f8	-0.026033387
68	0x3d2365c1	0.039891962
69	0xbd2774da	-0.040882923
70	0xbc0dc9d3	-0.008654076
71	0x3a2c8e54	0.0006582488
72	0xbadd193d	-0.0016868484
73	0xbaf8f373	-0.0018993452
74	0xbd2573af	-0.040393528
75	0x3caf6211	0.021409066
76	0xbcceaa6c	-0.025227748
77	0xbd05e04d	-0.032684613
78	0xbb3d8908	-0.0028920788
79	0xbcb648e7	-0.02225156
80	0x3cd610c9	0.02613105
81	0x3b79901d	0.0038080283
82	0x3cd512d9	0.026009964
83	0xbc33c782	-0.010972859
84	0x3c4bbf97	0.012435815
85	0xbce7ec0c	-0.028310798
86	0x3ccd7a2f	0.025082676
87	0xbd0edef9	-0.034880612
88	0xbb18aa3d	-0.002329483
89	0x3d367d0a	0.04455284
90	0xbc851bd0	-0.016248614
91	0xbd10272b	-0.035193603
92	0x3ba234b4	0.0049501304
93	0xbcbfdc50	-0.023420483
94	0xbc6cb6a5	-0.014447843
95	0xbcca3065	-0.02468128
96	0x3cfa3ae5	0.030545661
97	0x3bab835f	0.0052341665
98	0x3b74dafe	0.0037361975
99	0xbc9a08cd	-0.018803025
100	0xbd13cd6d	-0.03608458
101	0xbb52c33a	-0.003215982
102	0x3c0cde00	0.008597851
103	0x3bb07017	0.005384456
104	0x3d2ce0b2	0.042206474
105	0xbcec15a8	-0.02881892
106	0xbc1b499f	-0.009478002
107	0xbcedd009	-0.029029863
108	0x3cd7a2ab	0.026322683
109	0xbd395aa0	-0.045252442
110	0xbc7657b8	-0.015035562
111	0xbc9a0712	-0.0188022
112	0x3c607067	0.013698674
113	0xbd22974f	-0.03969508
114	0xba30595f	-0.00067271845
115	0xbd04a4ff	-0.032383915
116	0x3b569623	0.0032743297
117	0x3cb35e97	0.02189569
118	0xbcc40e49	-0.023932593
119	0x3c0f926a	0.008762935
120	0x3bf217ef	0.007388107
121	0xbc423971	-0.011854515
122	0x3ca07f3e	0.019591924
123	0xbcd678e1	-0.026180686
124	0x3ab434e1	0.0013748669
125	0xbd297ecb	-0.041380685
126	0x3b23c597	0.00249896
127	0x3cf096b6	0.02936874
128	0xbc758ed3	-0.014987665
129	0x3d00eb10	0.031474173
130	0xbbfcece8	-0.007718671
131	0x3d17a73c	0.03702472
132	0x39c98915	0.00038439842
133	0x3ce9d53e	0.028544065
134	0xbd15382a	-0.036430515
135	0xbd0513a1	-0.032489423
136	0x3c16235d	0.009163705
137	0xbcb88a28	-0.022526816
138	0x3bdeccab	0.0067993007
139	0xbcdc44ea	-0.02688833
140	0xbc672c03	-0.014109614
141	0x3d0818d7	0.033226814
142	0xbd476c48	-0.04868725
143	0xbcdaec8f	-0.026724128
144	0xbd1fcc5c	-0.03901325
145	0xbd034a9c	-0.032053575
146	0xbc3d76d4	-0.011563975
147	0xbd12e7cb	-0.035865586
148	0x3b0e93eb	0.0021755646
149	0xbca47e26	-0.020079684
150	0x3c86fa30	0.01647672
151	0x3d1faa79	0.038980935
152	0x3cf4ceda	0.02988379
153	0x3ceee05e	0.029159721
154	0x3baa7211	0.005201586
155	0xbbe66526	-0.007031101
156	0x3cc541f0	0.024079293
157	0xbd3983a5	-0.04529156
158	0xbc45bdab	-0.012069146
159	0xbc44589d	-0.011984018
160	0x3c7fbd74	0.015609134
161	0x3d205a76	0.03914877
162	0x3c82ae99	0.015952395
163	0xbd063153	-0.032761883
164	0x3c8b0f2b	0.016975006
165	0xbd0c509d	-0.034256566
166	0xba2bda56	-0.0006555667
167	0x3ce6c4f8	0.028170094
168	0xbd1b4216	-0.03790482
169	0xbd058a4a	-0.032602586
170	0x3c148a60	0.009066194
171	0xbd09bc83	-0.033627044
172	0x3c62502e	0.013813062
173	0x3cf17880	0.029476404
174	0xbc5735a2	-0.013135346
175	0xbd03768b	-0.032095473
176	0x3c9397af	0.018016664
177	0xbd1d947d	-0.038471688
178	0xbc9e7c20	-0.019346297
179	0xbb899944	-0.004199179
180	0x3ce590f1	0.028023215
181	0xbc9b2697	-0.0189393
182	0xbba7eff4	-0.00512504
183	0xbb0973d6	-0.0020973585
184	0xbcec07db	-0.02881234
185	0xba6519ab	-0.00087394816
186	0xbc4f00d7	-0.012634478
187	0xbd1aad70	-0.03776306
188	0x3d159eee	0.03652852
189	0xbcf643b3	-0.030061578
190	0x3ce77eb8	0.028258666
191	0xbcdff918	-0.027340457
192	0x3c3e4050	0.011612013
193	0xbd15576c	-0.036460325
194	0x3c1cdfc0	0.0095748305
195	0x3ca6d7a6	0.020366501
196	0xbbd16cb6	-0.006391133
197	0xbd202bc8	-0.039104253
198	0x3ca41ea8	0.02003415
199	0x3c82f6a4	0.015986748
200	0xbd0e7005	-0.0347748
201	0xbc6098f6	-0.013708344
202	0xbcae3d5a	-0.02126949
203	0xbd0b4cf4	-0.034008935
204	0xbcbe16bb	-0.023204198
205	0x3ca63e8f	0.020293502
206	0x3ca2646c	0.019823276
207	0xbb1f77c0	-0.0024332851
208	0xbd41e78b	-0.047339957
209	0xbd30bf30	-0.04315108
210	0x3c3212f9	0.010868781
211	0xbc9c6a59	-0.01909368
212	0xbd2eea7a	-0.042704083
213	0x3ca7c9eb	0.020482024
214	0x3cc2b18c	0.023766302
215	0xbd3724e4	-0.044712916
216	0xb860eb0b	-5.3624663e-05
217	0xbb5f455b	-0.0034068439
218	0xbb048e12	-0.0020226282
219	0x3d05f2bb	0.03270219
220	0x3d19fe25	0.037595887
221	0x3cb00625	0.021487305
222	0x3c0a8af2	0.008455979
223	0xbccb7fc7	-0.024841202
224	0xbcf9d4d1	-0.030496987
225	0xbc60f1fc	-0.013729569
226	0xbb4adc1d	-0.0030953952
227	0x3cd67093	0.026176726
228	0xbc6f9a53	-0.014624196
229	0x3cd0e98c	0.025501989
230	0xbcca18ef	-0.024670092
231	0xbc4d3181	-0.01252401
232	0x3ce43a31	0.02785978
233	0xbd059c7f	-0.03261995
234	0x3b59fb66	0.0033261417
235	0x3cce9461	0.025217237
236	0xba96c02c	-0.0011501363
237	0x3ce90398	0.028444096
238	0x3b9d6e24	0.0048043896
239	0x3ab28b5d	0.0013621856
240	0xb96332a5	-0.00021667274
241	0xbd2eba70	-0.04265827
242	0xbd21150c	-0.039326712
243	0x3c10b5a0	0.008832365
244	0xbc6e0550	-0.014527634
245	0xbb94bc80	-0.0045390725
246	0x3d19398a	0.03740839
247	0xbbae7736	-0.0053242696
248	0x3c4368f0	0.0119268745
249	0x3c147576	0.009061208
250	0x3c672476	0.014107814
251	0x3d078905	0.033089656
252	0x3c25718b	0.010097872
253	0xbcf21641	-0.029551627
254	0x3d025ef6	0.031828843
255	0xbd24ce60	-0.040235877

decoder.0.bias f4 [64]
0	0xbced24df	-0.028948246
1	0x3d450c7e	0.048107617
2	0x3d54d166	0.05195751
3	0x3cd61827	0.026134564
4	0xbde9b41f	-0.114113085
5	0x3dfbe61c	0.12299749
6	0x3c253510	0.010083452
7	0x3d02670d	0.031836558
8	0xbc0bc25f	-0.008530228
9	0x3d2f05d8	0.042730182
10	0xbd1a6252	-0.03769142
11	0x3c6a5a26	0.01430372
12	0xbd78a077	-0.060699906
13	0xbc8eca80	-0.017430544
14	0xbd58fa89	-0.052973304
15	0xbd2a0056	-0.041504227
16	0xbbcd1e1b	-0.0062596924
17	0x3dbecdee	0.09316622
18	0xbcfb3f5d	-0.030669862
19	0xbd568cd5	-0.0523804
20	0x3d936aff	0.07198142
21	0x3e1df9bd	0.15427299
22	0x3d1eae3a	0.038740374
23	0xbcba1f86	-0.02272011
24	0xbc937076	-0.017997961
25	0x3e003203	0.12519078
26	0x3d01db4c	0.03170328
27	0xbda31e18	-0.07964724
28	0x3d694a48	0.056955606
29	0xbd2da913	-0.04239757
30	0xbd49c75a	-0.049262382
31	0xbdbdd1d2	-0.09268536
32	0xbd0d1806	-0.03444674
33	0x3dc4054b	0.09571322
34	0x3d532762	0.05155123
35	0xbcbfe2d4	-0.02342359
36	0x3d9fbe84	0.0780001
37	0x3dd78506	0.10523419
38	0xbdb79e9b	-0.089657985
39	0x3d262c5b	0.040569644
40	0xbd55630c	-0.05209641
41	0x3b2f043b	0.0026705402
42	0x3d9104e2	0.070810094
43	0xbd1bbdb8	-0.038022727
44	0x3bbbcd82	0.0057312855
45	0xbd2d8370	-0.042361677
46	0x3d0002e7	0.031252768
47	0x3ca4fa5f	0.020138917
48	0xbcd2926f	-0.02570459
49	0x3e68e42f	0.22743295
50	0x3caa3822	0.02077872
51	0x3c9a54b9	0.018839227
52	0xbdda7dfd	-0.106685616
53	0x3daf6d9d	0.08565829
54	0xbd23c7ee	-0.03998559
55	0xbc4973b4	-0.012295652
56	0xbd110979	-0.035409424
57	0xbc815705	-0.015788564
58	0x3cea49dd	0.028599674
59	0x3ce459ec	0.02787491
60	0xbcdcd5cf	-0.02695742
61	0xbc8558be	-0.016277667
62	0xbe20b231	-0.15692975
63	0x3bd78509	0.0065771383

decoder.2.weight f4 [64, 32, 3, 3]
0	0xbc34beef	-0.01103185
1	0xbc090d20	-0.008364946
2	0x3d6f65a3	0.058446538
3	0x3d1ab759	0.03777251
4	0xbc981083	-0.01856256
5	0xbd2808cd	-0.041024018
6	0x3d835a7a	0.064137414
7	0x3cbf423c	0.023347013
8	0x3c7df507	0.015500314
9	0x3cdb0bc7	0.026739014
10	0xbcff4f25	-0.031165669
11	0x3b5c2f42	0.0033597504
12	0x3d28a6fc	0.041174874
13	0x3c29eed8	0.010371886
14	0x3cac426d	0.021027768
15	0xbc3c12ce	-0.011479093
16	0x3d18407d	0.037170876
17	0x3cc42d55	0.023947397
18	0xbcb04993	-0.021519458
19	0x3d959944	0.07304624
20	0x3c6e084c	0.014528345
21	0x3ccd3276	0.025048476
22	0xbd36aa56	-0.04459604
23	0x3cefdfb6	0.029281478
24	0xbb990779	-0.0046700803
25	0x3d66993a	0.056298472
26	0xbd3a2698	-0.045446962
27	0x3d0216c4	0.031759992
28	0xbc432fb5	-0.01191323
29	0xbc5a5c3a	-0.013327653
30	0xbd84212d	-0.0645164
31	0xbbb426a3	-0.00549777
32	0xbd60946b	-0.054829042
33	0x3a910a70	0.0011065733
34	0x3d1905f0	0.037359178
35	0x3c3b9c8f	0.011450901
36	0x3d569b8f	0.052394446
37	0x3c81619e	0.015793618
38	0xbc6831f5	-0.014172067
39	0xbca0f55b	-0.019648245
40	0x3d033c23	0.032039773
41	0xbc08f95b	-0.008360232
42	0xbc935ad5	-0.017987648
43	0x3d1574ec	0.03648846
44	0x3d295ee7	0.04135027
45	0x3cc78de1	0.024359645
46	0x3cd8b09a	0.026451398
47	0xbd4b76e1	-0.04967392
48	0xbca9532b	-0.02066954
49	0xbd460fae	-0.048354797
50	0x3d725438	0.05916235
51	0xbc58e878	-0.013239019
52	0x3ca47296	0.02007417
53	0x3d0c3bbb	0.03423665
54	0x3d568735	0.052375037
55	0xbbb84704	-0.0056237
56	0x3cc932b3	0.024560308
57	0xbc8d3882	-0.01723886
58	0xbd6aacbe	-0.057293646
59	0xbce743ec	-0.02823063
60	0x3cedd9a2	0.02903444
61	0x3ce1db40	0.027570367
62	0xbcd39f81	-0.025832893
63	0x3d491390	0.049090922
64	0xbc80d619	-0.01572709
65	0xbcd66114	-0.026169337
66	0x3d627a2b	0.05529229
67	0x3d1df1bf	0.038560625
68	0x3d2b5dde	0.041837566
69	0x3c5770a8	0.013149418
70	0xbcd4df4b	-0.02598538
71	0x3ce43617	0.027857823
72	0x3bbc9357	0.005754869
73	0x3cbd313f	0.023094771
74	0x3cfa45b9	0.030550824
75	0xbb713a53	-0.0036808446
76	0x3d048213	0.03235061
77	0x3cac0d09	0.02100231
78	0xbcf60a7e	-0.0300343
79	0xbc5e9bdb	-0.0135869635
80	0xbd7fc140	-0.062440157
81	0xbd47a208	-0.04873851
82	0xbc8c757b	-0.017145863
83	0xbbe918d9	-0.007113558
84	0xbd1482a6	-0.03625741
85	0xbbacfb46	-0.0052789776
86	0xbcb4a6bd	-0.022052163
87	0x3d366854	0.04453309
88	0x3cc87d33	0.024473762
89	0x3ce893e0	0.028390825
90	0x3c910af1	0.017705413
91	0x3cbed2fe	0.023293968
92	0x3b5f0a2a	0.0034033158
93	0xbd6b0c1c	-0.057384595
94	0xbbb3e493	-0.0054898947
95	0x3d3818f0	0.044945657
96	0xbd80e2a2	-0.06293227
97	0xbcb3699c	-0.021900944
98	0x3d225344	0.03963019
99	0xbd56a903	-0.052407276
100	0x3d58d7f5	0.052940328
101	0xbd10327f	-0.035204407
102	0xbd248348	-0.040164262
103	0x3d114db8	0.03547451
104	0xbd5f3a0d	-0.05449872
105	0xbceffe90	-0.02929619
106	0x3d603eea	0.0547475
107	0xbd5083af	-0.050906833
108	0xbd30aa0d	-0.043130923
109	0xbd014eff	-0.031569477
110	0xbceb2678	-0.028704867
111	0xbca29622	-0.01984698
112	0xbcf8825c	-0.030335598
113	0x3cb0aa29	0.021565514
114	0xbd641334	-0.055682376
115	0x3d42e91f	0.047585603
116	0x3d523c66	0.05132713
117	0xbd4a631b	-0.04941092
118	0x3cd79c0e	0.02631953
119	0x3c8afdf0	0.01696679
120	0xbb0d3bf0	-0.0021550618
121	0xbc0f198f	-0.008734121
122	0x3ca78513	0.020449197
123	0xbb829e25	-0.0039861375
124	0x39ae733b	0.0003327372
125	0xbce28b7f	-0.027654408
126	0x3d29e37a	0.041476704
127	0x3d817842	0.063217655
128	0x3c299a13	0.010351676
129	0x3ca1a640	0.019732594
130	0xbcb63fd4	-0.022247232
131	0xbbadec0c	-0.00530768
132	0xbd31636e	-0.043307714
133	0x3d108732	0.035285182
134	0x3d83c19a	0.06433411
135	0x3be739d0	0.0070564523
136	0xbc46888e	-0.012117518
137	0x3c88dc51	0.016706618
138	0xbd139bf7	-0.03603741
139	0xbc266440	-0.010155737
140	0x3cf983ff	0.030458448
141	0x3cffecc0	0.03124082
142	0x3b1c125f	0.002381466
143	0x3d920d67	0.071314625
144	0x3d556157	0.052094784
145	0xbb96902f	-0.0045948247
146	0xbc3cc983	-0.0115226535
147	0xbd4d0fad	-0.050063778
148	0xbcab2c94	-0.02089528
149	0xbd2a66a0	-0.041601777
150	0xbbb91acd	-0.005648947
151	0xbcc53785	-0.024074325
152	0xbcaea979	-0.021321045
153	0xbcaf5555	-0.021402994
154	0x3d5be3cd	0.053684045
155	0xbcbc7527	-0.023005081
156	0xbca670a6	-0.020317387
157	0x3d36ce02	0.044630058
158	0x3cd8b929	0.026455479
159	0x3cae8a1f	0.021306096
160	0xbd16ff81	-0.03686476
161	0xbd5f2578	-0.054479092
162	0x3d3ce729	0.04611889
163	0xbcfd5104	-0.03092242
164	0xbd4a0315	-0.049319346
165	0x3cb6abb0	0.022298664
166	0xbcd4b762	-0.02596635
167	0x3d2f108a	0.042740382
168	0x3bce20ba	0.0062905224
169	0xbc40ea07	-0.0117745465
170	0x3c27fb03	0.010252717
171	0xbb7d6bac	-0.0038668914
172	0x3d2e4859	0.042549465
173	0xbd25f3eb	-0.04051582
174	0x3ae9cc00	0.0017837286
175	0xbd1d2872	-0.03836865
176	0x3cc72bae	0.02431282
177	0x3d8fd862	0.070236936
178	0x3c61f80c	0.013792049
179	0x3b46b548	0.0030320454
180	0x3c307c1d	0.010771778
181	0xbd28eb5a	-0.041240074
182	0xbce37d3a	-0.027769674
183	0xbd4da039	-0.05020163
184	0xbd5f4bfd	-0.054515827
185	0xbc4104e2	-0.011780949
186	0x3d288ee3	0.041151892
187	0xbbd3a5e0	-0.006458983
188	0xbd2780ba	-0.040894248
189	0xbd432d9f	-0.04765093
190	0x3ce99bdd	0.028516704
191	0xbd13633e	-0.035983317
192	0x3d064ed6	0.032790028
193	0xbd2f40a8	-0.04278627
194	0x3bc4edc5	0.0060097896
195	0x3c7e8aee	0.015536053
196	0xbd5bf9f8	-0.053705186
197	0x3d0b48f1	0.03400511
198	0x3d006a62	0.031351455
199	0x3d617fc5	0.05505349
200	0xbc1b6cc8	-0.009486385
201	0xbcc5ef1a	-0.024161864
202	0x3b03cf9b	0.0020112756
203	0xba46272f	-0.00075589394
204	0xbd522657	-0.051306095
205	0x3d6500af	0.055908855
206	0x3d492910	0.049111426
207	0x3d35ad07	0.044354465
208	0xbd22fcd5	-0.0397919
209	0x3d68848d	0.056767035
210	0x3cffdfe2	0.031234685
211	0x3c281dff	0.010261058
212	0x3c64d453	0.013966638
213	0xbb74b8bf	-0.0037341563
214	0x3d040105	0.032227535
215	0xbd0cc81c	-0.034370527
216	0xbcf63f0b	-0.030059358
217	0xba9de2af	-0.0012045706
218	0xbd4fda6b	-0.05074541
219	0xbcbc6029	-0.022995071
220	0x3d076cd5	0.033062775
221	0xbd2e905a	-0.042618133
222	0xbd7a9747	-0.061179426
223	0xbc8f7463	-0.017511552
224	0xbd19b8ab	-0.03752963
225	0x3b351481	0.002763063
226	0xbd18f631	-0.03734416
227	0xbd030e47	-0.031996038
228	0xbd4ba5c7	-0.049718644
229	0x3cf467f2	0.029834721
230	0x3d51a09a	0.051178552
231	0x3d197d6a	0.03747312
232	0xbb571e2b	-0.0032824378
233	0x3d025f01	0.031828884
234	0xbccc5125	-0.024941036
235	0xbcc01aec	-0.023450337
236	0xbd32ac11	-0.043621127
237	0x3d3a9154	0.045548752
238	0x3d5c6821	0.053810243
239	0xbcdfec6a	-0.02733441
240	0x3c94110d	0.018074537
241	0x3cbb70a4	0.02288086
242	0x3d0fbc0b	0.03509144
243	0xba6be2a7	-0.00089983124
244	0x3d30571a	0.043051817
245	0xbc824541	-0.015902163
246	0xbbe15e85	-0.0068777227
247	0xbc51cdbd	-0.0128053995
248	0xbd284a52	-0.041086502
249	0xbd40cde9	-0.04707137
250	0xbc8d2b6f	-0.017232625
251	0xbd4035ff	-0.046926495
252	0x3d838439	0.06421704
253	0xbd7bf065	-0.061508555
254	0x3cab4890	0.020908624
255	0xbd1d45c0	-0.038396597

decoder.2.bias f4 [32]
0	0xbe2b3ed8	-0.16723192
1	0x3dfc28f0	0.12312496
2	0xbd92f74b	-0.07176074
3	0x3de57589	0.11204059
4	0x3e13fb37	0.144513
5	0xbc01bb8a	-0.007918248
6	0x3dc0f9f6	0.09422676
7	0x3da7bd10	0.08190358
8	0x3d1911ec	0.037370607
9	0x3c9b9bb6	0.018995147
10	0x3e099277	0.13434778
11	0xbc7411e4	-0.014896844
12	0x3dba60fb	0.09100529
13	0x3b6acdf1	0.0035828317
14	0xbe838eb5	-0.25694814
15	0xbdf18a0e	-0.1179391
16	0x3e6f2bed	0.233566
17	0x3d39ff30	0.04540938
18	0x3d8128c6	0.06306605
19	0x3df65765	0.12028388
20	0x3e63d1a3	0.22247939
21	0x3e113945	0.14182003
22	0x3de14898	0.11000174
23	0x3c94c2fc	0.018159382
24	0xbd92ccbd	-0.07167957
25	0xbe17892b	-0.14798419
26	0xbdfea3bc	-0.124335736
27	0x3d7e5ea3	0.06210197
28	0x3e79a117	0.24377857
29	0xbd6756b8	-0.056479186
30	0xbb2efba1	-0.0026700275
31	0x3d2f37ff	0.04277801

decoder.4.weight f4 [32, 1, 3, 3]
0	0x3d95cdca	0.07314642
1	0xbe410ff6	-0.18853745
2	0xbea00244	-0.3125173
3	0x3df9d945	0.12199644
4	0xbd8710eb	-0.06595024
5	0xbe35b292	-0.177439
6	0x3e960ebb	0.29308113
7	0xbdc206c9	-0.094739504
8	0x3e1850f3	0.1487463
9	0x3e4bd807	0.19906627
10	0xbc1143c3	-0.008866253
11	0x3e20b32f	0.15693353
12	0xbedfa329	-0.4367917
13	0xbcba8c9a	-0.022772122
14	0xbe054f33	-0.13018493
15	0xbe07604a	-0.13220325
16	0xbd940b52	-0.07228722
17	0xbe94e422	-0.29080302
18	0x3da4f458	0.08054417
19	0xbe714680	-0.2356205
20	0x3d3010fb	0.042984944
21	0x3dc9b5c5	0.09849123
22	0x3c99f040	0.018791318
23	0x3e7c8766	0.24661025
24	0x3c30f698	0.01080098
25	0xbea5fa09	-0.32417324
26	0xbe77510c	-0.2415201
27	0x3d97e128	0.07415992
28	0x3eb3ed15	0.35141817
29	0x3ca9c298	0.020722672
30	0x3d6a908c	0.057266757
31	0xbd477a84	-0.048700824
32	0x3e638e1a	0.22222176
33	0xbcdf4e1e	-0.027258929
34	0x3e7aaf4a	0.2448093
35	0x3e648cb8	0.22319305
36	0x3d4a40ea	0.049378313
37	0x3eba4596	0.36381215
38	0xbe528960	-0.20560217
39	0xbe6187f6	-0.22024521
40	0xbe9c5598	-0.30534053
41	0x3d1d021d	0.038332094
42	0x3e8d0d16	0.27549046
43	0x3e1773d3	0.14790277
44	0x3d8619f2	0.065479174
45	0x3e5a637d	0.21327014
46	0x3eaa51ff	0.33265683
47	0xbd3dc591	-0.046330992
48	0x3ed9318b	0.4242061
49	0xbdc3d73c	-0.09562537
50	0xbeb54333	-0.3540283
51	0x3e7deec6	0.24798116
52	0x3ce794a8	0.028269127
53	0xbc927499	-0.017877864
54	0x3e1091cf	0.14118122
55	0x3e790672	0.24318865
56	0x3d74fcde	0.059811465
57	0xbdd79119	-0.10525722
58	0xbef3042d	-0.47464123
59	0x3e5d4e65	0.21611936
60	0xbd0aa2e5	-0.033846755
61	0x3df4fd23	0.119623445
62	0xbea4c11f	-0.3217859
63	0xbbd0405f	-0.00635533
64	0xbe1e6743	-0.15469079
65	0x3d8f5307	0.06998258
66	0xbda630b9	-0.08114762
67	0x3f029dd9	0.51022106
68	0xbe6df4fe	-0.23237988
69	0xbe8ac8a6	-0.27106208
70	0xbe97d36f	-0.296535
71	0x3dd897d3	0.10575833
72	0xbd40860a	-0.04700283
73	0xbe546661	-0.2074218
74	0x3ea1c8a4	0.3159839
75	0x3e8dec7f	0.27719495
76	0x3d021c7e	0.031765454
77	0x3e8de1ed	0.2771143
78	0x3d630b67	0.055430796
79	0xbd265a23	-0.040613305
80	0x3e311162	0.17291787
81	0x3d218a29	0.0394384
82	0x3e85283d	0.26007262
83	0xbb84d1a8	-0.0040533133
84	0xbe7ffe69	-0.24999394
85	0xbe705d8a	-0.23473182
86	0x3eb156fb	0.34636673
87	0xbe9cef77	-0.30651447
88	0xbec233fc	-0.37930286
89	0xbe6009c5	-0.21878727
90	0xbd94f322	-0.072729364
91	0xbe70d16c	-0.23517388
92	0xbd48ebb2	-0.0490529
93	0xbde1079b	-0.10987779
94	0x3e953fb0	0.29150152
95	0x3c046edf	0.008083074
96	0xbd942da6	-0.07235269
97	0x3ec893d4	0.39175284
98	0x3d0e7d65	0.034787554
99	0x3d844f7c	0.06460473
100	0x3afb70ab	0.0019183358
101	0x3d47bce6	0.048764132
102	0x3ea12a1f	0.31477448
103	0xbe967a19	-0.29390028
104	0x3ec34764	0.38140404
105	0xbd06b553	-0.032887768
106	0x3e999993	0.2999998
107	0x3eb8f4a5	0.3612415
108	0xbcc1f2c9	-0.02367534
109	0xbe3fca29	-0.18729462
110	0xbe1fecab	-0.15617625
111	0x3c65262e	0.0139861535
112	0x3e4d2039	0.20031823
113	0x3dd434c4	0.10361627
114	0x3e9b5d0f	0.30344436
115	0x3b5fd1dd	0.0034152188
116	0xbecc5531	-0.39908746
117	0xbe76d446	-0.24104413
118	0xbd20e54f	-0.039281186
119	0xbca69bb4	-0.020337917
120	0x3dd3db08	0.10344511
121	0xbdb1c9a5	-0.08681039
122	0x3e216fc5	0.15765293
123	0xbddb247f	-0.107003205
124	0xbe9c0315	-0.304711
125	0xbe9f7b4c	-0.31148756
126	0x3de2d7b6	0.110763
127	0xbe99f3a8	-0.30068707
128	0x3d49c286	0.049257778
129	0x3d725f37	0.059172835
130	0xbed20600	-0.41020203
131	0x3b8fdcfa	0.004390356
132	0x3c5330bb	0.012890036
133	0xbdd7c8f9	-0.10536379
134	0x3dcd7704	0.10032466
135	0xbd146337	-0.03622743
136	0x3e608afd	0.2192802
137	0x3e353237	0.17694937
138	0x3e041160	0.12897253
139	0x3de075b6	0.109599516
140	0xbe1e58d1	-0.15463568
141	0x3e86c8af	0.26324984
142	0xbeada798	-0.33916926
143	0x3deaf273	0.11472025
144	0xbe345fb4	-0.17614633
145	0x3ef57123	0.4793788
146	0x3e01fd12	0.12694195
147	0x3e93b0b1	0.28845742
148	0x3db71cb5	0.08941022
149	0xbd0114b8	-0.0315139
150	0xbb9e272a	-0.004826446
151	0x3b526e62	0.003210925
152	0x3c8893aa	0.016671974
153	0xbd9d4614	-0.07679382
154	0x3e23577c	0.15951341
155	0xbe4d3c2d	-0.20042486
156	0x3ea8f417	0.32998726
157	0x3eb31dd2	0.3498369
158	0x3d63b032	0.055587955
159	0x3e8b7962	0.27241045
160	0xbdc1022d	-0.09424243
161	0xbe33b4d8	-0.17549455
162	0xbea2c9bc	-0.31794536
163	0x3e09368f	0.13399719
164	0x3df21a30	0.11821401
165	0x3d4e7c4e	0.050411515
166	0xbd0cba0e	-0.034357123
167	0x3de43664	0.11143187
168	0x3e86601d	0.26245204
169	0x3ec6ecad	0.38852444
170	0xbe7c2179	-0.24622144
171	0x3deebcfa	0.11657138
172	0x3bbef84a	0.005827938
173	0x3e17b0b7	0.14813505
174	0xbdb51e1a	-0.08843632
175	0x3ea0568a	0.31316024
176	0x3e6b7295	0.22992928
177	0xbe7243ab	-0.23658626
178	0x3e972df2	0.2952724
179	0xbd87074c	-0.06593189
180	0xbcde0e74	-0.027106501
181	0xbe10f188	-0.14154637
182	0x3dfa35b6	0.12217276
183	0x3d2fdf26	0.04293742
184	0x3ed25b25	0.41085163
185	0xbdf7a41f	-0.120918505
186	0x3e664815	0.22488435
187	0x3eb33f9b	0.35009465
188	0xbebf54e4	-0.37369454
189	0x3e423bcc	0.18968123
190	0x3dd71daa	0.10503705
191	0xbe25319f	-0.1613221
192	0xbe8f245c	-0.27957428
193	0x3e0f1766	0.1397377
194	0xbec3f7b8	-0.38274932
195	0xbdaefd2f	-0.08544385
196	0x3dc71638	0.09721035
197	0x3b403d5d	0.002933345
198	0xbe829f22	-0.25512034
199	0x3e7fb3c2	0.24970916
200	0xbdbe3e6c	-0.0928925
201	0x3e81b4e5	0.25333324
202	0xbea29030	-0.3175063
203	0x3e935083	0.28772363
204	0xbdfa6d51	-0.12227882
205	0x3d892659	0.06696767
206	0x3e0e56f2	0.13900355
207	0xbde32583	-0.11091139
208	0x3c9324b8	0.017961845
209	0xbe1280ea	-0.1430699
210	0x3df21a42	0.118214145
211	0x3eba00b8	0.36328673
212	0x3e76e1fc	0.24109644
213	0x3d225eed	0.03964131
214	0xbe0ad1e9	-0.13556637
215	0xbe9f9350	-0.31167078
216	0x3ec6b5b7	0.38810512
217	0x3e832d39	0.2562044
218	0x3e07fa7f	0.1327915
219	0x3e666239	0.22498406
220	0x3e28a98f	0.16470931
221	0x3ebab086	0.36462802
222	0x3e5086b0	0.20363879
223	0xbeb30222	-0.34962565
224	0xbe87f7f8	-0.26556373
225	0xbe54ceee	-0.20782062
226	0xbe67114f	-0.22565196
227	0x3e9eb535	0.30997625
228	0x3ecccfea	0.40002376
229	0xbeb22d88	-0.34800363
230	0xbd5ffeeb	-0.054686468
231	0x3e98dd99	0.29856566
232	0x3e5a576b	0.2132241
233	0xbe54ebdb	-0.20793097
234	0xbcc28ca5	-0.023748705
235	0x3d2a9ad6	0.04165157
236	0x3cd2c1fb	0.025727263
237	0x3d6dbf77	0.058043923
238	0xbed8d0e3	-0.42346868
239	0xbec2693a	-0.37970906
240	0xbd687d17	-0.05675992
241	0xbe910c37	-0.28329632
242	0x3dc0879d	0.09400866
243	0xbd834f0e	-0.06411563
244	0xbd44c416	-0.048038565
245	0x3df08da7	0.11745768
246	0x3eb1ee4f	0.34752128
247	0x3e7aaae0	0.24479246
248	0x3eced3d0	0.40395975
249	0xbe80d13e	-0.2515964
250	0x3cc226ff	0.023700235
251	0xbed060cc	-0.4069885
252	0xbe7837ba	-0.24240008
253	0x3d7c5c68	0.061611563
254	0xbe8a807c	-0.2705115
255	0x3e106c17	0.14103733
